nohup: 忽略输入
/data2/gyp/HyPyraMamba/HypraMamba/train.py:32: FutureWarning: `torch.cuda.amp.GradScaler(args...)` is deprecated. Please use `torch.amp.GradScaler('cuda', args...)` instead.
  scaler = GradScaler()
[I 260331 15:45:26 train:153] ./RUNS_experiment_2/MambaHSI/indian
[I 260331 15:45:26 train:215] {'net_name': 'MambaHSI', 'dataset_index': 6, 'num_list': [30, 10], 'lr': 0.0003, 'seed_list': [0, 1, 2], 'label_smoothing': 0.1, 'spatial_mode': 'baseline', 'class_weight_mode': 'balanced'}
[I 260331 15:45:26 train:216] ImprovedMambaHSI(
      (patch_embedding): Sequential(
        (0): Conv2d(30, 128, kernel_size=(1, 1), stride=(1, 1))
        (1): GroupNorm(4, 128, eps=1e-05, affine=True)
        (2): SiLU()
      )
      (shared_prca): PyramidRefinedChannelAttention(
        (attention_modules): ModuleList(
          (0-2): 3 x PyramidAttention(
            (qkv): Conv2d(128, 384, kernel_size=(1, 1), stride=(1, 1))
            (qkv_dwconv): Conv2d(384, 384, kernel_size=(3, 3), stride=(1, 1), padding=(2, 2), dilation=(2, 2), groups=384)
            (project_out): Conv2d(128, 128, kernel_size=(1, 1), stride=(1, 1))
          )
        )
        (attention_layers): ModuleList(
          (0-2): 3 x ModuleList(
            (0-1): 2 x PyramidAttention(
              (qkv): Conv2d(128, 384, kernel_size=(1, 1), stride=(1, 1))
              (qkv_dwconv): Conv2d(384, 384, kernel_size=(3, 3), stride=(1, 1), padding=(2, 2), dilation=(2, 2), groups=384)
              (project_out): Conv2d(128, 128, kernel_size=(1, 1), stride=(1, 1))
            )
          )
        )
        (project_out): Conv2d(384, 128, kernel_size=(1, 1), stride=(1, 1))
      )
      (mamba): Sequential(
        (0): ImprovedBothMamba(
          (spa_mamba): ImprovedSpaMamba(
            (pyramid_refined_attention): Identity()
            (mamba): Mamba(
              (in_proj): Linear(in_features=128, out_features=512, bias=False)
              (conv1d): Conv1d(256, 256, kernel_size=(4,), stride=(1,), padding=(3,), groups=256)
              (act): SiLU()
              (x_proj): Linear(in_features=256, out_features=40, bias=False)
              (dt_proj): Linear(in_features=8, out_features=256, bias=True)
              (out_proj): Linear(in_features=256, out_features=128, bias=False)
            )
            (multi_scale_conv): MultiScaleConv(
              (conv1): Conv2d(128, 128, kernel_size=(3, 3), stride=(1, 1), padding=(1, 1))
              (conv2): Conv2d(128, 128, kernel_size=(5, 5), stride=(1, 1), padding=(2, 2))
              (conv3): Conv2d(128, 128, kernel_size=(7, 7), stride=(1, 1), padding=(3, 3))
              (conv4): Conv2d(128, 128, kernel_size=(1, 1), stride=(1, 1))
              (final_conv): Conv2d(512, 128, kernel_size=(1, 1), stride=(1, 1))
              (norm): GroupNorm(1, 128, eps=1e-05, affine=True)
              (activation): ReLU()
              (attention): ChannelAttention(
                (avg_pool): AdaptiveAvgPool2d(output_size=1)
                (fc1): Conv2d(128, 8, kernel_size=(1, 1), stride=(1, 1), bias=False)
                (relu): ReLU()
                (fc2): Conv2d(8, 128, kernel_size=(1, 1), stride=(1, 1), bias=False)
                (sigmoid): Sigmoid()
              )
            )
            (scsa): SCSA(
              (local_dwc): Conv1d(32, 32, kernel_size=(3,), stride=(1,), padding=(1,), groups=32)
              (global_dwcs): ModuleList(
                (0): Conv1d(32, 32, kernel_size=(5,), stride=(1,), padding=(2,), groups=32)
                (1): Conv1d(32, 32, kernel_size=(7,), stride=(1,), padding=(3,), groups=32)
                (2): Conv1d(32, 32, kernel_size=(9,), stride=(1,), padding=(4,), groups=32)
              )
              (sa_gate): Sigmoid()
              (norm_h): GroupNorm(4, 128, eps=1e-05, affine=True)
              (norm_w): GroupNorm(4, 128, eps=1e-05, affine=True)
              (conv_d): Identity()
              (norm): GroupNorm(1, 128, eps=1e-05, affine=True)
              (q): Conv2d(128, 128, kernel_size=(1, 1), stride=(1, 1), groups=128, bias=False)
              (k): Conv2d(128, 128, kernel_size=(1, 1), stride=(1, 1), groups=128, bias=False)
              (v): Conv2d(128, 128, kernel_size=(1, 1), stride=(1, 1), groups=128, bias=False)
              (attn_drop): Dropout(p=0.0, inplace=False)
              (ca_gate): Sigmoid()
              (down_func): AvgPool2d(kernel_size=(7, 7), stride=7, padding=0)
            )
            (spatial_prior): Identity()
            (proj): Sequential(
              (0): GroupNorm(4, 128, eps=1e-05, affine=True)
              (1): SiLU()
            )
          )
          (spe_mamba): ImprovedSpeMamba(
            (pyramid_refined_attention): Identity()
            (mamba): Mamba(
              (in_proj): Linear(in_features=32, out_features=128, bias=False)
              (conv1d): Conv1d(64, 64, kernel_size=(4,), stride=(1,), padding=(3,), groups=64)
              (act): SiLU()
              (x_proj): Linear(in_features=64, out_features=34, bias=False)
              (dt_proj): Linear(in_features=2, out_features=64, bias=True)
              (out_proj): Linear(in_features=64, out_features=32, bias=False)
            )
            (proj): Sequential(
              (0): GroupNorm(4, 128, eps=1e-05, affine=True)
              (1): SiLU()
            )
          )
          (attention): Sequential(
            (0): Conv2d(256, 128, kernel_size=(1, 1), stride=(1, 1))
            (1): SiLU()
            (2): Conv2d(128, 1, kernel_size=(1, 1), stride=(1, 1))
            (3): Sigmoid()
          )
        )
        (1): AvgPool2d(kernel_size=2, stride=2, padding=0)
      )
      (dynamic_conv): DynamicConvBlock(
        (attention): Sequential(
          (0): AdaptiveAvgPool2d(output_size=1)
          (1): Conv2d(128, 32, kernel_size=(1, 1), stride=(1, 1))
          (2): ReLU()
          (3): Conv2d(32, 4, kernel_size=(1, 1), stride=(1, 1))
          (4): Softmax(dim=1)
        )
        (convs): ModuleList(
          (0-3): 4 x Conv2d(128, 128, kernel_size=(3, 3), stride=(1, 1), padding=(1, 1), groups=128)
        )
        (norm): GroupNorm(1, 128, eps=1e-05, affine=True)
        (dropout): Dropout(p=0.1, inplace=False)
        (activation): SiLU()
      )
      (cls_head): Sequential(
        (0): Conv2d(128, 128, kernel_size=(1, 1), stride=(1, 1))
        (1): GroupNorm(4, 128, eps=1e-05, affine=True)
        (2): SiLU()
        (3): Conv2d(128, 16, kernel_size=(1, 1), stride=(1, 1))
      )
      (upsample): Upsample(scale_factor=2.0, mode='bilinear')
    )
[I 260331 15:45:26 train:229] train_class_counts: [30, 30, 30, 30, 30, 30, 17, 30, 12, 30, 30, 30, 30, 30, 30, 30]
[I 260331 15:45:26 train:230] class_weights: [… I 260331 15:45:26 train:247] Adam (
    Parameter Group 0
        amsgrad: False
        betas: (0.9, 0.999)
        capturable: False
…
