nohup: 忽略输入
/data2/gyp/HyPyraMamba/HypraMamba/train.py:32: FutureWarning: `torch.cuda.amp.GradScaler(args...)` is deprecated. Please use `torch.amp.GradScaler('cuda', args...)` instead.
  scaler = GradScaler()
[I 260331 17:03:52 train:153] ./RUNS/MambaHSI/Salinas
[I 260331 17:03:53 train:214] {'net_name': 'MambaHSI', 'dataset_index': 5, 'num_list': [30, 10], 'lr': 0.0003, 'seed_list': [0, 1, 2], 'label_smoothing': 0.0, 'spatial_mode': 'baseline', 'class_weight_mode': 'none'}
[I 260331 17:03:53 train:215] SpeOnlyMambaHSI(
      (patch_embedding): Sequential(
        (0): Conv2d(30, 128, kernel_size=(1, 1), stride=(1, 1))
        (1): GroupNorm(4, 128, eps=1e-05, affine=True)
        (2): SiLU()
      )
      (shared_prca): PyramidRefinedChannelAttention(
        (attention_modules): ModuleList(
          (0-2): 3 x PyramidAttention(
            (qkv): Conv2d(128, 384, kernel_size=(1, 1), stride=(1, 1))
            (qkv_dwconv): Conv2d(384, 384, kernel_size=(3, 3), stride=(1, 1), padding=(2, 2), dilation=(2, 2), groups=384)
            (project_out): Conv2d(128, 128, kernel_size=(1, 1), stride=(1, 1))
          )
        )
        (attention_layers): ModuleList(
          (0-2): 3 x ModuleList(
            (0-1): 2 x PyramidAttention(
              (qkv): Conv2d(128, 384, kernel_size=(1, 1), stride=(1, 1))
              (qkv_dwconv): Conv2d(384, 384, kernel_size=(3, 3), stride=(1, 1), padding=(2, 2), dilation=(2, 2), groups=384)
              (project_out): Conv2d(128, 128, kernel_size=(1, 1), stride=(1, 1))
            )
          )
        )
        (project_out): Conv2d(384, 128, kernel_size=(1, 1), stride=(1, 1))
      )
      (spe_mamba): Sequential(
        (0): ImprovedSpeMamba(
          (pyramid_refined_attention): Identity()
          (mamba): Mamba(
            (in_proj): Linear(in_features=32, out_features=128, bias=False)
            (conv1d): Conv1d(64, 64, kernel_size=(4,), stride=(1,), padding=(3,), groups=64)
            (act): SiLU()
            (x_proj): Linear(in_features=64, out_features=34, bias=False)
            (dt_proj): Linear(in_features=2, out_features=64, bias=True)
            (out_proj): Linear(in_features=64, out_features=32, bias=False)
          )
          (proj): Sequential(
            (0): GroupNorm(4, 128, eps=1e-05, affine=True)
            (1): SiLU()
          )
        )
        (1): AvgPool2d(kernel_size=2, stride=2, padding=0)
      )
      (dynamic_conv): DynamicConvBlock(
        (attention): Sequential(
          (0): AdaptiveAvgPool2d(output_size=1)
          (1): Conv2d(128, 32, kernel_size=(1, 1), stride=(1, 1))
          (2): ReLU()
          (3): Conv2d(32, 4, kernel_size=(1, 1), stride=(1, 1))
          (4): Softmax(dim=1)
        )
        (convs): ModuleList(
          (0-3): 4 x Conv2d(128, 128, kernel_size=(3, 3), stride=(1, 1), padding=(1, 1), groups=128)
        )
        (norm): GroupNorm(1, 128, eps=1e-05, affine=True)
        (dropout): Dropout(p=0.1, inplace=False)
        (activation): SiLU()
      )
      (cls_head): Sequential(
        (0): Conv2d(128, 128, kernel_size=(1, 1), stride=(1, 1))
        (1): GroupNorm(4, 128, eps=1e-05, affine=True)
        (2): SiLU()
        (3): Conv2d(128, 16, kernel_size=(1, 1), stride=(1, 1))
      )
    )
[I 260331 17:03:54 train:246] Adam (
    Parameter Group 0
        amsgrad: False
        betas: (0.9, 0.999)
        capturable: False
        decoupled_weight_decay: False
        differentiable: False
        eps: 1e-08
        foreach: None
        fused: None
        lr: 0.0003
        maximize: False
        weight_decay: 1e-05
    )
/data2/gyp/HyPyraMamba/HypraMamba/train.py:295: FutureWarning: `torch.cuda.amp.autocast(args...)` is deprecated. Please use `torch.amp.autocast('cuda', args...)` instead.
…
